Current device: cuda:0
normalizing data:
mean: [0.615, 0.4381, 0.645]
std: [0.615, 0.4381, 0.645]
shape of input: torch.Size([256, 3, 256, 256])
Using 2 GPUs...
DataParallel(
  (module): ConvAutoencoder_conv1x1(
    (conv1): Conv2d(3, 16, kernel_size=(3, 3), stride=(1, 1), padding=(1, 1))
    (conv2): Conv2d(16, 32, kernel_size=(3, 3), stride=(1, 1), padding=(1, 1))
    (conv3): Conv2d(32, 32, kernel_size=(3, 3), stride=(1, 1), padding=(1, 1))
    (conv4): Conv2d(32, 32, kernel_size=(3, 3), stride=(1, 1), padding=(1, 1))
    (conv5): Conv2d(32, 2, kernel_size=(1, 1), stride=(1, 1))
    (relu): LeakyReLU(negative_slope=0.1)
    (pool): MaxPool2d(kernel_size=2, stride=2, padding=0, dilation=1, ceil_mode=False)
    (transconv1): Conv2d(2, 32, kernel_size=(1, 1), stride=(1, 1))
    (transconv2): ConvTranspose2d(32, 32, kernel_size=(4, 4), stride=(2, 2), padding=(1, 1))
    (transconv3): ConvTranspose2d(32, 32, kernel_size=(4, 4), stride=(2, 2), padding=(1, 1))
    (transconv4): ConvTranspose2d(32, 16, kernel_size=(4, 4), stride=(2, 2), padding=(1, 1))
    (transconv5): ConvTranspose2d(16, 3, kernel_size=(4, 4), stride=(2, 2), padding=(1, 1))
    (sigmoid): Sigmoid()
  )
)
paramters to train:
module.conv1.weight
module.conv1.bias
module.conv2.weight
module.conv2.bias
module.conv3.weight
module.conv3.bias
module.conv4.weight
module.conv4.bias
module.conv5.weight
module.conv5.bias
module.transconv1.weight
module.transconv1.bias
module.transconv2.weight
module.transconv2.bias
module.transconv3.weight
…
